data.pth (torch, 8343 bytes, 6 tensors)

l1.weight f4 [8, 121]
00000000: 01b9 c83e 31b8 653e 5191 06be 62b1 bd3e
00000010: 05ea 35be aeb7 823f 62e1 b43e d33b ac3e
00000020: 3897 a83e 77c5 0f3e e7f5 20be 31a2 f8bd
00000030: 3e4c abbe 1b7c bf3e 6f7a 96be 3767 cb3d
00000040: bdde 04be 1f32 0b3e 1610 6c3f 8a54 2abe
00000050: ebc7 2f3f 3e54 c1be 84b1 f13e fdfd 013f
00000060: 1eb3 a23d f276 333f 7318 793f c4a1 3f3f
00000070: 7c86 2c3f 56e0 89be 2ab7 563f 0de4 123e
00000080: cb5f 00bf c42b 763d 0983 373f 5d89 d8be
00000090: c520 c03d ce18 5dbe 386f ed3c 8ec5 253e
000000a0: c618 233f a7c0 283e 32bb 953f 9a65 1abf
000000b0: 58b6 0cbf 9793 0dbf 1e88 14bf 196f eabd
000000c0: 52e6 6e3f 5156 dbbe 0f64 26bf 4739 123e
000000d0: 211b b13f 9464 7f3d 61ff 8c3b 75af a93e
000000e0: b7be 05bf 01df be3f ee2d 8bbf 72cc e1be
000000f0: 1371 613e b95a e33e 4164 fc3d e440 1f3e
00000100: 98d3 b13e cdf2 963e fa41 1bbe 8998 51bf
00000110: 45b0 a13e 0af4 2e3f 4971 7dbe 1683 a53e
00000120: dbe0 803f d678 0abe ca47 943e 5fa3 083c
00000130: 9f47 023d 6da9 963f 0d32 c63d 5f41 1a3e
00000140: 5087 ad3e 49dc c7bd 5371 febe 69f3 7b3e
00000150: af17 653f af38 cdbd 11e9 113f 78d9 043f
00000160: 9d97 6fbc 4b39 31bd 87a3 983c 2857 04bf
00000170: 0e35 ffbc fd35 73be 4b6c 84bf edf4 fe3e
00000180: bbb5 913d 0486 aabd 619c 0d3f 013a 313f
00000190: b01c 503d efbd 2abe 7878 fa3e 6a54 643e
000001a0: c09b 5c3e d2c4 ccbe e58b 1fbe 0f89 2c3e
000001b0: e169 0fbe 8e30 c6be 7af8 a13e 5574 ccbe
000001c0: e76f 9e3e e571 813f ef41 d9be aa54 f73d
000001d0: e2bb 863e b850 df3e 4c65 1bbf bc33 ae3e
000001e0: 083a 493f 7e57 3f3f a358 dc3e 7b27 9cbe
000001f0: aaf5 0ebf ff6a 283e ab64 af3e e10a a63e
00000200: cc8c b63e c50c 223f c6f4 13bf 19e8 263f
00000210: 9b3b 4bbd 876b 5fbf 21dc 08bf 3675 373f
00000220: 2fcb cabe c463 4abe 1bcb 90be 35aa 833f
00000230: e51a 023f 6fc6 db3e 1f27 a3be f947 7f3e
00000240: a396 a53e f1fc 683e 809e 823e 5dbf 13bb
00000250: 2487 aa3e d2c6 c13e 43c9 a0be 5611 ffbd
00000260: d24d a73d 02e9 8d3f 25d9 df3e 2501 953e
00000270: c358 29bf 8113 323b 811e 39bf 604d 833d
00000280: 2195 4c3f 9e00 a03e 9a8e 863f a8f8 153f
00000290: 1219 3b3f 1e82 de3e 72b1 3a3f e608 463f
000002a0: 3009 d43c f5a0 7f3f ba0f 263f ace4 2a3f
000002b0: 9d61 493e dd7d fd3e b413 883e ff59 333e
000002c0: 52f7 973d 7621 103f 1e9f c5bd 2dad 90bf
000002d0: ace9 023f 0ad0 25be 3f39 883e 3afe 923e
000002e0: 2736 c83e b503 af3e 40e3 0e3e e9d1 f63e
000002f0: a5cc 853f b52e f8be 56a1 02bf baf2 50bf
00000300: 070f acbd df21 ac3e b6b0 f63c df1a 3f3e
00000310: 123e ee3e 9719 993e f224 003e 13b9 33bf
00000320: 9041 06bf fbca 04bf d404 e73d 2f4c 303e
00000330: e791 113e 9dce 5cbe f033 cf3d 8834 0a3f
00000340: 1b59 f43e 3e28 813e e729 6d3f 2bc6 55bf
00000350: 1c99 083e 5e13 9b3e 3a76 b8be d9bb 73bf
00000360: bb33 3e3e 214f 74bf e4b8 f5be 69c1 3f3f
00000370: 9407 233f 5fe3 dc3d 3dd7 0e3f 109c bf3e
00000380: f9af 1d3e 04a8 1a3f 8609 963e 2677 d13e
00000390: e255 933e 86e2 b53e d9ac d13e 48a6 b93d
000003a0: 4463 5bbe 7bed da3e e5d1 aabd c480 e03c
000003b0: c5ae e33e 8ec9 4e3f 6ddd a53e 9ac5 333f
000003c0: d5e6 073f f721 11bb c7fe 313f 39fa a23e
000003d0: bb70 35be 76e0 39bf 3ff0 023f bbc2 543e
000003e0: 187b e33d 2188 a6bc 161c 313f b327 d9bd
000003f0: 13a3 d23e 7e87 7b3e 781f a53f 7350 013f
0.39203647 0.22433545 -0.13141371 0.37049395 -0.17765053 1.0212305 0.35328203 0.33639392
0.3292787 0.1404017 -0.15718804 -0.121403106 -0.33456606 0.37399372 -0.29390284 0.09931796
-0.12975593 0.13593338 0.92212045 -0.16633812 0.68664426 -0.37759584 0.47205746 0.5077818
0.0794432 0.7010337 0.9730293 0.7485621 0.67392707 -0.26928967 0.83873236 0.14344807
-0.5014617 0.060100332 0.7168432 -0.422923 0.0938125 -0.21591493 0.028983697 0.16188642
0.63709676 0.16479741 1.1697752 -0.6031128 -0.54965734 -0.5530333 -0.580202 -0.114469714
0.9332019 -0.42839292 -0.6499643 0.14279662 1.3836404 0.06235178 0.0043029045 0.33141676
-0.5224413 1.4911805 -1.0873392 -0.44101292 0.2201579 0.44405153 0.123238094 0.15552098
0.34731746 0.29482117 -0.15161887 -0.81873375 0.31579795 0.68341124 -0.24750246 0.32326573
1.006862 -0.13522658 0.2896102 0.008339732 0.031806584 1.1770455 0.09677515 0.15064
0.33892298 -0.09758813 -0.49695835 0.24604572 0.89489263 -0.10020577 0.56996256 0.5189433
-0.01462355 -0.04326753 0.018632663 -0.5169549 -0.031153228 -0.23751064 -1.0345548 0.4979624
0.071147405 -0.08326343 0.5531674 0.6922913 0.05080861 -0.16674016 0.48920035 0.22297826
0.21543789 -0.39993912 -0.1558071 0.16849159 -0.14005233 -0.3870892 0.31634885 -0.39932504
0.3094475 1.0112883 -0.42433116 0.12076695 0.26315218 0.4361627 -0.6070144 0.34023845
0.78604174 0.7474288 0.43036374 -0.3049887 -0.55843604 0.16447066 0.3425649 0.32430175
0.35654294 0.63300735 -0.5779537 0.651979 -0.04961739 -0.8727345 -0.5346089 0.71663225
-0.39608142 -0.1976462 -0.28279957 1.0286318 0.5082229 0.4292483 -0.31865785 0.24929799
0.3234149 0.2275274 0.2551155 -0.0022544481 0.3330623 0.37847 -0.3140355 -0.124544784
0.0816914 1.1086733 0.43720356 0.29102436 -0.66151065 0.002717227 -0.7231217 0.064112425
0.7991505 0.3125047 1.0512269 0.58582544 0.7308513 0.43458647 0.7292701 0.7735733
0.025883287 0.99854976 0.64867747 0.66755176 0.19666143 0.4951009 0.26577532 0.175148
0.074202195 0.5630106 -0.0964949 -1.1302849 0.51137805 -0.16192642 0.26606175 0.28709584
0.39103815 0.34182516 0.13953876 0.48207024 1.0453078 -0.48473135 -0.5102743 -0.8162037
-0.08401304 0.33619592 0.03011356 0.18662594 0.4653173 0.29902336 0.12514094 -0.70204276
-0.5244379 -0.51872224 0.11280218 0.17216562 0.14215814 -0.21563192 0.10117328 0.53986406
0.47724232 0.25226015 0.9264206 -0.83505505 0.13339657 0.30288213 -0.360277 -0.9520851
0.18574421 -0.9543324 -0.47992623 0.74904495 0.6368344 0.10785555 0.5579718 0.37423754
0.1539916 0.6041262 0.2930414 0.40911216 0.2877646 0.35524386 0.40952185 0.09064919
-0.21424586 0.42759308 -0.083408155 0.02740515 0.44469276 0.807763 0.32395497 0.7022339
0.53086597 -0.0022145489 0.69529384 0.3183153 -0.17718785 -0.72608125 0.51147836 0.20777409
0.11107463 -0.020328583 0.6918348 -0.10603275 0.4114004 0.24563405 1.2900229 0.5051338

l1.bias f4 [8]
00000000: cd71 743f b075 cc3f 3dcd 6a3f 2b6c 083f
00000010: d52a a33f a1a0 2e3f 9694 423f 501d 7c3f
0.95486146 1.5973415 0.9171942 0.5329005 1.2747446 0.6821385 0.76007974 0.9848223

l2.weight f4 [8, 8]
00000000: 4026 43bf b18d 1f40 113b 0940 c34f 27bf
00000010: b680 da3f f2ca e6bf bec6 7c3f 2273 0840
00000020: 9a69 bb3e 87f8 7fbe 5527 55bf e19a 1440
00000030: 3ee4 ac3f f436 d63f 5cd5 2240 dea1 a6bf
00000040: 31e1 0040 169a f73f 3592 2cbf fe42 c0bf
00000050: 3092 ff3f bfa5 fd3e fb8a 35be 86f4 45bf
00000060: 2adb 1940 e73a 8b3f 543e 61bf d51d cbbd
00000070: 4476 02bf 5d55 883f d920 71bf a89d d83e
00000080: d5cd 193e 1120 033e 368f 38be 010d 523e
00000090: 5d68 40be 8a75 e2bd a408 6abe 2f2f bfbe
000000a0: db40 a73d 1ca9 2c3e 0331 8bbd 14c2 9abc
000000b0: 4875 a1be bd31 ad3d f4c1 67bd 60cf 8fbe
000000c0: 37a2 f33f 8d5c 713f 1441 1740 4d23 8b3e
000000d0: 1a04 efbf 2ebb e93f f34f 353f 4671 1e40
000000e0: 79a9 8c3e fc53 adbe 58c7 b1be 4239 8bbc
000000f0: aa6b e4bd f584 40bd 5c35 2abe b3d9 843e
-0.7623024 2.4930232 2.1442301 -0.6535608 1.707053 -1.8030684 0.98740757 2.1320271
0.36604005 -0.2499715 -0.8326314 2.321953 1.3507154 1.673552 2.5442724 -1.3018148
2.0137446 1.9343898 -0.67410594 -1.5020444 1.9966488 0.49540517 -0.17728798 -0.7732624
2.4040017 1.087735 -0.8798573 -0.099177994 -0.5096171 1.0651051 -0.94190747 0.42307782
0.15019925 0.12805201 -0.1802338 0.20512773 -0.18789811 -0.11057575 -0.22854859 -0.37340686
0.08166667 0.16861385 -0.067964576 -0.018891372 -0.3153479 0.084567524 -0.056581452 -0.28087902
1.9033879 0.94281846 2.363347 0.2717537 -1.8673127 1.8260248 0.7082512 2.4756637
0.27473047 -0.33853137 -0.347224 -0.016995076 -0.11153348 -0.047001798 -0.16621917 0.2594734

l2.bias f4 [8]
00000000: 6ed1 383f c9bf 313f 11e2 5d3f d9cc 933e
00000010: 4553 9cbe 3346 bfbe 7844 723e d5f9 bdbe
0.72194564 0.69433266 0.86673075 0.28867224 -0.3053228 -0.37358245 0.23658931 -0.3710467

l3.weight f4 [16, 8]
00000000: 7a11 5b3f 9c53 0fbf c405 223f 7fa2 aebe
00000010: ae6e 92be 12e0 a63e 371f 24c0 f7d2 e7bd
00000020: c1ee 8ebf a4d0 4ebd bdb6 9d3e 1526 563e
00000030: 17e9 2f3e 7264 7dbe a157 10be 940b 98be
00000040: 4848 abbd d81d 1e3d f402 d43e b23c bfbf
00000050: bfa5 6a3e 3ab9 8c3e a183 f4be f33f bcbe
00000060: a168 d2bd b552 f6bd 1d9c 3cbf 5f19 66bf
00000070: 79d2 97bc b5a3 9dbe d022 1e3e ed15 14bc
00000080: dee4 0ec0 5471 62bf 16b2 873f 67bc 5e3f
00000090: c0e8 d9bc 4218 a7be c6dc 98be e4d3 afbc
000000a0: 83b2 11c0 d5ea 313f 6147 d1bf eec6 1fc0
000000b0: 7d4d 9b3e 9e05 bbbc 4005 6d3e 5fb3 45be
000000c0: 7315 03bf 7538 e7bf 70b0 3c3d 9d85 903f
000000d0: fedf b6be 14fe ecbd 3d59 f23e 3e5e 28be
000000e0: 65c5 563f 343e 77bf e8fc 433e c1b8 4cc0
000000f0: 3f90 473e 45bf 9e3c 87ca 67be eaa2 8bbe
00000100: e01c 753f e8f2 2fbf 43a9 15c0 53d1 eabf
00000110: 659a 173c 5e88 69be b962 6b3e ba3f dbbb
00000120: 462c 36c0 4718 ca3e f9d5 95be 1ea5 213e
00000130: 86c1 96be 7d52 60be b760 ecbd a449 473e
00000140: ca59 b4bf 3e78 03bf d271 c9bf 2b1d f43e
00000150: 42d2 8f3e 6684 6bbb e6c0 423f 5bea dbbd
00000160: cf66 5ebe 0bd5 eebd 4b1e 26c0 ad48 2cc0
00000170: 68e2 f8bd 4333 823e 4479 1c3f 9adb a5be
00000180: 5459 02bd cf7e e93e dbf5 51bf 7b7d 41c0
00000190: 7466 923c d658 063e cc88 c9be a628 583e
000001a0: b3b0 a3be df40 623f 3262 aabf c049 8abf
000001b0: 00d6 833e afbb a73e a9bc e8bf b6cb 75bd
000001c0: 57ec 3bbe 1421 eb3e 28bc 2c3f 8bbb 44c0
000001d0: 6bdb 9e3e 65e5 693e 5423 06c0 c55c 1cbc
000001e0: 0a60 3d3f 1ae5 3ac0 5433 963e 7d37 a4be
000001f0: f87b 9cbe a896 863e f1ab 2cbc eedd 903e
0.8557354 -0.5598695 0.6329005 -0.3410835 -0.28600067 0.32592827 -2.5644052 -0.11319535
-1.1166612 -0.050491944 0.3080348 0.20912965 0.1717876 -0.24745348 -0.14095928 -0.29696333
-0.08363396 0.03860268 0.41408503 -1.4940398 0.2291479 0.27485067 -0.47756675 -0.3676754
-0.10273863 -0.12027494 -0.7367571 -0.89882463 -0.018532978 -0.3078896 0.15442967 -0.009038431
-2.232719 -0.88454175 1.0601223 0.8700623 -0.026600242 -0.32635695 -0.29855937 -0.021463342
-2.2765205 0.6949895 -1.6349908 -2.4965167 0.30332556 -0.022829827 0.23146534 -0.19306706
-0.51204604 -1.8064104 0.0460667 1.1290776 -0.35717767 -0.11571899 0.47333708 -0.164422
0.8389495 -0.9657929 0.19139445 -3.1987765 0.1948862 0.019378314 -0.22635852 -0.2727273
0.95747185 -0.6873002 -2.338456 -1.8345131 0.009253119 -0.22805926 0.22986878 -0.0066909464
-2.8464522 0.39471647 -0.2926481 0.15785643 -0.29444522 -0.21906467 -0.115418844 0.19461685
-1.4089901 -0.5135535 -1.573786 0.47678503 0.280901 -0.003593707 0.7607559 -0.10738059
-0.21718906 -0.116617285 -2.595599 -2.6919358 -0.121525586 0.25429735 0.61122537 -0.32394105
-0.03182347 0.4560456 -0.8201577 -3.0232837 0.01787112 0.13119826 -0.3936218 0.21109256
-0.31970748 0.88380235 -1.3311217 -1.0803757 0.25749207 0.3276038 -1.8182575 -0.060008727
-0.18351875 0.45923674 0.67474604 -3.0739467 0.31026778 0.22841413 -2.0959063 -0.009543602
0.7397467 -2.9202332 0.29336035 -0.32073584 -0.3056333 0.26286817 -0.010539041 0.2829432

l3.bias f4 [16]
00000000: 1324 543e bf8b 013f a734 aa3e 6415 c9be
00000010: 7866 c3be 8933 723e 3529 b3be b1af e43d
00000020: 6f37 dc3e 6066 e3be 0bf6 1d3e 4d78 42bd
00000030: 3cfb c0bd 8802 e73d 22ff 5c3d 8a9d 9bbe
0.20716886 0.5060386 0.33243296 -0.39274132 -0.38164115 0.23652472 -0.34992376 0.11166323
0.43011042 -0.44414043 0.15425889 -0.04747801 -0.09422919 0.1127978 0.05395425 -0.3039363
